…
2024-11-28 22:47:27,037 - __main__ - ERROR - Model state: {'training': True, '_parameters': OrderedDict(), '_buffers': OrderedDict(), '_non_persistent_buffers_set': set(), '_backward_pre_hooks': OrderedDict(), '_backward_hooks': OrderedDict(), '_is_full_backward_hook': None, '_forward_hooks': OrderedDict(), '_forward_hooks_with_kwargs': OrderedDict(), '_forward_hooks_always_called': OrderedDict(), '_forward_pre_hooks': OrderedDict(), '_forward_pre_hooks_with_kwargs': OrderedDict(), '_state_dict_hooks': OrderedDict(), '_state_dict_pre_hooks': OrderedDict(), '_load_state_dict_pre_hooks': OrderedDict(), '_load_state_dict_post_hooks': OrderedDict(), '_modules': OrderedDict([('encoder_embedding', CombinedEmbedding(
  (value_embedding): ValueEmbedding(
    (projection): Linear(in_features=24, out_features=512, bias=True)
  )
  (positional_embedding): PositionalEmbedding(
    (dropout): Dropout(p=0.1, inplace=False)
  )
)), ('decoder_embedding', CombinedEmbedding(
  (value_embedding): ValueEmbedding(
    (projection): Linear(in_features=24, out_features=512, bias=True)
  )
  (positional_embedding): PositionalEmbedding(
    (dropout): Dropout(p=0.1, inplace=False)
  )
)), ('encoder_layers', ModuleList(
  (0-2): 3 x EncoderLayer(
    (self_attn): MultiHeadAttention(
      (q_proj): Linear(in_features=512, out_features=512, bias=True)
      (k_proj): Linear(in_features=512, out_features=512, bias=True)
      (v_proj): Linear(in_features=512, out_features=512, bias=True)
      (out_proj): Linear(in_features=512, out_features=512, bias=True)
      (dropout): Dropout(p=0.1, inplace=False)
    )
    (feed_forward): FeedForwardNetwork(
      (linear1): Linear(in_features=512, out_features=2048, bias=True)
      (linear2): Linear(in_features=2048, out_features=512, bias=True)
      (dropout): Dropout(p=0.1, inplace=False)
      (activation): ReLU()
    )
    (norm1): LayerNorm((512,), eps=1e-05, elementwise_affine=True)
    (norm2): LayerNorm((512,), eps=1e-05, elementwise_affine=True)
    (dropout): Dropout(p=0.1, inplace=False)
  )
)), ('decoder_layers', ModuleList(
  (0-2): 3 x DecoderLayer(
    (self_attn): MultiHeadAttention(
      (q_proj): Linear(in_features=512, out_features=512, bias=True)
      (k_proj): Linear(in_features=512, out_features=512, bias=True)
      (v_proj): Linear(in_features=512, out_features=512, bias=True)
      (out_proj): Linear(in_features=512, out_features=512, bias=True)
      (dropout): Dropout(p=0.1, inplace=False)
    )
    (cross_attn): MultiHeadAttention(
      (q_proj): Linear(in_features=512, out_features=512, bias=True)
      (k_proj): Linear(in_features=512, out_features=512, bias=True)
      (v_proj): Linear(in_features=512, out_features=512, bias=True)
      (out_proj): Linear(in_features=512, out_features=512, bias=True)
      (dropout): Dropout(p=0.1, inplace=False)
    )
    (feed_forward): FeedForwardNetwork(
      (linear1): Linear(in_features=512, out_features=2048, bias=True)
      (linear2): Linear(in_features=2048, out_features=512, bias=True)
      (dropout): Dropout(p=0.1, inplace=False)
      (activation): ReLU()
    )
    (norm1): LayerNorm((512,), eps=1e-05, elementwise_affine=True)
    (norm2): LayerNorm((512,), eps=1e-05, elementwise_affine=True)
    (norm3): LayerNorm((512,), eps=1e-05, elementwise_affine=True)
    (dropout): Dropout(p=0.1, inplace=False)
  )
)), ('output_projection', Linear(in_features=512, out_features=1, bias=True))]), 'config': {'model_type': <ModelType.VANILLA_TRANSFORMER: 3>, 'input_features': 24, 'output_dim': 1, 'hidden_dims': [64, 32], 'activation': 'relu', 'dropout': 0.1, 'd_model': 512, 'n_heads': 8, 'n_encoder_layers': 3, 'n_decoder
…
